Streamlit/titanic_model.pth (torch, 16960 bytes, 3 tensors)

fc1.weight f4 [128, 27]
000000 9b cf ba 3d 92 ef 44 3e e4 ab 6f bd 8b bc 2b 3e
       0.09121629 0.19232014 -0.058513537 0.16771142
000010 f0 e4 b6 bd eb 2d 3b 3d 08 fe e6 bd 3d 15 81 3d
       -0.08930385 0.045698088 -0.11278921 0.06302879
000020 74 17 03 3e b4 80 ac bd 7e 53 12 3e 41 30 3c 3d
       0.12801915 -0.08422986 0.14289662 0.045944456
000030 ae f8 e7 3d 0b 84 5f bb bd 36 69 3d 48 cf 28 bd
       0.11326729 -0.0034105803 0.056936968 -0.041213304
000040 81 c8 b9 3d cc 1a 92 bb fc b0 f7 bd d5 19 35 3d
       0.09071446 -0.004458761 -0.12094304 0.04421409
000050 c9 0e 89 bd 6b f4 f3 ba a3 0f dd bd f5 4d b6 3d
       -0.06692273 -0.0018612271 -0.10793998 0.08901588
000060 30 16 af bd d3 ef 14 be 77 7f 84 bd 41 d2 46 be
       -0.08549154 -0.1454461 -0.064696245 -0.19416143
000070 e7 9f d9 3d 26 91 2e be b1 05 3e 3e b2 74 71 be
       0.10626202 -0.17047557 0.18556859 -0.23579672
000080 18 8a f9 3d 2a 0a c4 3d 17 6e b9 bd c9 db 0e 3e
       0.121845424 0.09572251 -0.09054201 0.13951029
000090 57 c3 d4 3d 5a c5 1b 3e 0a fe b2 3c 3d 50 36 3c
       0.103888206 0.15212002 0.02184965 0.011127529
0000a0 af c3 68 3c f7 77 f5 3b 03 1d ef 3c 61 40 be 3d
       0.014206811 0.0074911076 0.029188639 0.09289623
0000b0 23 ab 46 3d 06 2e ad bc 0d 55 f7 3d 2c d9 94 3d
       0.048503052 -0.02114011 0.12076769 0.07267985
0000c0 e9 3f 3b 3e db dd 5e be 93 0a 78 be 7f 30 06 3d
       0.18286099 -0.21764319 -0.24222784 0.032761093
0000d0 7d 92 58 be c5 a9 31 3e 15 ee 92 bc 83 12 a8 3d
       -0.21149631 0.17349918 -0.017935792 0.08206656
0000e0 61 ce e2 3c 35 3e e7 bc 57 bf e4 3d f0 61 39 be
       0.0276863 -0.028227905 0.11169308 -0.18103766
0000f0 3b 4c 5e 3d 44 ce 3e be 8c b3 a1 3d 93 cc 25 bc
       0.054271918 -0.18633372 0.07895574 -0.010119575
000100 c0 be 74 3d e0 63 8d bc 33 dc 3b 3e ca e5 b7 bd
       0.059752226 -0.017259538 0.18345718 -0.08979376
000110 0e 11 fb bd 30 90 10 be 20 94 d9 3d d0 fe 57 37
       -0.12259112 -0.14117503 0.10623956 1.2874327e-05
000120 1d 85 1f 3e b6 1a 13 be 17 97 28 be f2 06 b3 bd
       0.15578122 -0.14365658 -0.16463886 -0.08741559
000130 25 b1 0d be 37 1b bb 3c 7e c1 11 3e 7e ea ac 3d
       -0.13837107 0.022840125 0.14233968 0.08443163
000140 e0 07 c6 bd 10 aa 2a be fc 85 23 3e 9c 7b db bb
       -0.09669471 -0.16666436 0.1596908 -0.006698085
000150 d2 95 21 3e 88 5b 78 bd f4 76 27 3e 22 37 a3 bd
       0.15779808 -0.060634166 0.16353971 -0.079695
000160 2d 38 e4 bd f6 37 87 3d 8e 0b 04 3e 94 61 bf bc
       -0.11143527 0.066024706 0.12895033 -0.023361959
000170 c9 4b 0d 3e 8f 17 44 3e cf 05 3c be e4 90 f0 bd
       0.13798441 0.19149612 -0.18361591 -0.11746386
000180 10 55 47 3e b0 7a 11 be 2e 13 88 bd e7 93 28 be
       0.19466043 -0.14206958 -0.06644283 -0.1646267
000190 6f bf ef bd aa 6f 9f 3d 0e 5b 75 3d 10 40 1c be
       -0.11706435 0.0778497 0.05990129 -0.15258813
0001a0 7c 1b 5d 39 de 76 f7 bc 11 0f 54 be f7 b2 93 bd
       0.00021086441 -0.030208047 -0.20708872 -0.07211869
0001b0 41 aa 15 bd 07 82 07 be 96 16 1d 3e 52 a0 e3 3d
       -0.03653932 -0.13233195 0.15340647 0.11114563
0001c0 9d b5 cf 3d 93 fb 4f be 67 57 84 bd 1c 99 38 3d
       0.10142062 -0.20310812 -0.06461983 0.04506789
0001d0 f2 d4 03 3e 66 ea 62 be 86 6b 0f 39 e4 8f 25 be
       0.12874201 -0.22159728 0.00013677598 -0.16168171
0001e0 f5 60 83 3d ef d6 16 bd c0 4a 7f 3d 91 bb 25 bd
       0.064149775 -0.03682607 0.062327147 -0.04046208
0001f0 8a 06 07 be 3c fd 31 bd 14 b0 88 3c 4c ea 08 be
       -0.13186088 -0.043454394 0.016685523 -0.13370627
000200 80 3c 25 3e 73 73 f2 bb ea 0b 66 3e 5f e8 ff 3d
       0.1613636 -0.0073990165 0.22465482 0.12495493
000210 e1 c2 9b be cf b9 8e 3e ce 51 a8 bd 3d 85 1b 3d
       -0.30422118 0.27876136 -0.08218728 0.037968863
000220 4c 58 4e be 78 48 2d be 10 a0 8c 3d c4 b9 ad 3b
       -0.2015087 -0.16922176 0.06866467 0.005301686
000230 af c6 54 3d 0e f8 06 be af 4a 7e 3e f8 71 27 bd
       0.051947292 -0.13180563 0.24833177 -0.040880173
000240 a5 fe 88 bd 68 6a fd 3d cc 3f 30 3e 21 e2 3a 3e
       -0.066891946 0.12373811 0.17211837 0.18250324
000250 ca 08 1d 3e 44 4f a4 bd 75 f1 ff 3d 31 0e 9e bb
       0.15335384 -0.08022931 0.12497226 -0.004823469
000260 68 e2 9e 3d cb ad 83 bd 3a c7 45 3e 89 a3 10 be
       0.07758027 -0.06429633 0.1931428 -0.14124884
000270 ed 7d eb 3d bc 69 09 3e 57 37 16 3e 89 7f 4b be
       0.11498628 0.1341924 0.14669548 -0.1987287
000280 40 e1 90 3e 32 25 ad 3c 50 56 e4 3d 8b 21 6c be
       0.28296852 0.0211359 0.11149275 -0.2305967
000290 b5 d2 1a 3d 31 87 ee bc c9 5d 25 bd 51 a3 e9 3d
       0.037798602 -0.029117199 -0.040372644 0.11408103
0002a0 fd 2d 83 3d d5 2e f5 bc 55 86 c9 bc ef 53 43 bd
       0.06405256 -0.029929558 -0.024600187 -0.047687467
0002b0 83 ca 13 3e f2 98 0b 3c 31 20 f5 bd bb 19 18 bd
       0.14432721 0.008520352 -0.11969031 -0.037133913
0002c0 89 ae f0 bd f0 c1 08 3e 03 c7 5e 3e df 8b df bd
       -0.1175204 0.13355231 0.21755604 -0.1091535
0002d0 83 07 e8 3d 68 21 e5 3d 01 f0 0e 3d 56 4b be bd
       0.11329558 0.11188012 0.034896854 -0.09291713
0002e0 c8 ce 1b 3e b7 09 32 3e ff f9 41 bb 80 30 16 3d
       0.152156 0.17386518 -0.0029598472 0.036667347
0002f0 3f 22 b1 bd c4 5b 6c bd db c2 a1 3b 97 59 8f bc
       -0.0864911 -0.057704702 0.0049365587 -0.017498774
000300 a7 a6 0d 3e 0c 20 f6 3d c2 7e bf bb 5f 33 0b 3c
       0.13833104 0.12017831 -0.005843968 0.008496135
000310 a6 7c 22 bd 51 c0 b2 bb 0a 3b e5 3d 44 fc e3 3c
       -0.039669655 -0.005455055 0.111929014 0.02783025
000320 de 30 20 be d9 c4 2c bc 59 bd 15 3e 68 2e 1e 3d
       -0.15643641 -0.010544979 0.14623012 0.038618475
000330 3b 29 77 bd 0e b0 27 be 2f 85 26 be 5b 0f 2a be
       -0.060342055 -0.16375753 -0.16261743 -0.1660742
000340 d6 58 99 bd 53 45 c9 3d 44 ec 46 3e b3 cc 17 3d
       -0.07487647 0.09827676 0.19426066 0.03706045
000350 cf 01 62 be 97 aa a9 bc 46 b3 db bd b2 f1 3b 3e
       -0.22071002 -0.020711226 -0.10727553 0.18353918
000360 ea 7d ef bc 05 50 49 3c af 36 16 3e 95 f9 8a bb
       -0.029234845 0.012287145 0.14669298 -0.0042411783
000370 1f 50 2f be 0e 80 57 3e 68 5f 8e bd f1 ea e0 bd
       -0.17120408 0.21044943 -0.06951791 -0.109823115
000380 99 18 4b be f7 64 52 3e 76 62 06 3e 6d 6f 18 3d
       -0.19833602 0.20546328 0.13123497 0.03721564
000390 24 f4 84 bd 24 33 61 be 30 95 e6 bd 0f e8 cb 3d
       -0.06491879 -0.21992165 -0.11258924 0.09956371
0003a0 33 80 ad 3c 73 62 92 3d 46 91 b2 3d dd d4 18 3d
       0.021179294 0.07147684 0.08719115 0.037312377
0003b0 0e 18 c4 3c 99 37 79 bd d6 9d 41 be 36 75 64 be
       0.023937251 -0.060844038 -0.18907866 -0.22310337
0003c0 cd 87 1f 3e 4e 6e 03 be 2f 31 ba bd 40 23 65 bd
       0.15579148 -0.12835047 -0.09091412 -0.05594182
0003d0 23 56 1e bd 37 b4 0a be 8a b7 0b be e5 45 b2 3d
       -0.038656365 -0.13545309 -0.13644233 0.087047376
0003e0 0d 2f df bd 5f 71 2e 3e 36 92 cb bb 85 62 1e be
       -0.10897646 0.17035435 -0.006212498 -0.1546727
0003f0 ea f1 46 bd 8a 41 98 bd a1 8b d9 bd f1 f2 eb bd
       -0.04857055 -0.074343756 -0.10622335 -0.11520947

fc1.bias f4 [128]
000000 79 62 a4 bd 8d 9d a4 3d 18 c5 b2 3c 1e c3 a1 3d
       -0.08026595 0.08037863 0.021822497 0.07898544
000010 84 5d 42 3d 11 9c 93 3d 21 89 f2 3d a6 ec 3f 3e
       0.047452465 0.07207502 0.118425615 0.18742618
000020 90 5d 55 3e e7 8f dc bd 2d 73 1e be 91 e3 fb bc
       0.20836473 -0.10769635 -0.15473624 -0.03074816
000030 eb a6 8c bc 07 a7 15 3e 4b 40 05 3e 69 70 da 3d
       -0.017169436 0.14614497 0.13012807 0.10665972
000040 50 1b cf bd 87 a6 1f 3d 80 9f 30 3e 67 34 05 3e
       -0.10112631 0.038977172 0.17248344 0.13008271
000050 25 7f 88 bd ec 67 70 3d cc 25 c3 bd bb d4 b3 bd
       -0.06664876 0.058692858 -0.095286936 -0.087808095
000060 aa 78 57 3e 11 e6 1c bd 30 0c 31 3e 5b 7e a2 bd
       0.21042123 -0.038305346 0.17289805 -0.07934257
000070 92 84 73 3e 5b 63 05 3e fc 6c 13 3e 9a 3d 5c 3d
       0.2378104 0.13026182 0.14397043 0.053769685
000080 83 64 5f 3c 0a 54 5c bd 65 ad 51 bd ed 63 55 bd
       0.013634804 -0.053791083 -0.051190753 -0.05209725
000090 aa 90 d3 3d 29 17 4b bc ba 3c a4 bc d6 48 1f be
       0.10330327 -0.0123956585 -0.020048488 -0.15555128
0000a0 55 6c 00 3e 89 2d 78 bd d5 6a e1 bd c1 81 14 bc
       0.12541325 -0.0605903 -0.11006705 -0.009064139
0000b0 61 4e 1d be c3 99 f2 bc 58 ef 21 bd 70 70 03 3e
       -0.1536193 -0.029614335 -0.039534897 0.1283586
0000c0 0b e6 ec bd 0c 6b 9f 3d 83 84 06 3e e9 60 17 be
       -0.11567315 0.077840894 0.13136487 -0.14783062
0000d0 af 43 55 3e ec b9 5a 3e 88 2e ec bc 35 eb ea 3c
       0.208266 0.21359986 -0.028830782 0.028676609
0000e0 29 ff 51 3d 96 63 5f 3e b3 75 f0 3d b9 ed e0 bd
       0.05126873 0.21815333 0.11741199 -0.10982842
0000f0 66 92 82 bd ca 09 3d be 4e 78 ec bd ea a9 2a 3c
       -0.063755795 -0.18460765 -0.11546384 0.010416487
000100 a3 dd 12 3c d3 4d 30 3e 39 7d 0c be a9 19 d3 bd
       0.008963975 0.17217188 -0.13719644 -0.10307629
000110 c3 2c f8 bd 03 f3 f7 bd 2b 05 76 3e bd ab 80 3d
       -0.121179126 -0.12106898 0.24025409 0.062827565
000120 67 1d 15 3d 2a fd 9b bc 36 96 30 be 1a 39 ba bd
       0.036404993 -0.019041616 -0.17244801 -0.090929225
000130 be a1 d2 3d 2c aa 18 3e 74 8b 22 3e 94 03 b5 3c
       0.10284756 0.14908665 0.1587351 0.022096433
000140 0e 1e cc bd f3 22 fb bd f5 84 5d 3e d5 df 31 be
       -0.0996667 -0.122625254 0.2163275 -0.17370541
000150 b3 d7 c0 3d 42 0d 00 bd c3 b1 4b 3e ec 83 fc 3d
       0.09416141 -0.031262644 0.1989203 0.123298496
000160 55 bc 3f bd 06 fd ea bd 59 80 6b 3d 70 93 16 be
       -0.046810467 -0.11474042 0.05749545 -0.1470468
000170 93 b5 70 3d 28 46 6f 3d 32 21 ad 3d a3 2d a0 bd
       0.058766913 0.058416516 0.08453597 -0.078212045
000180 46 ee 15 be db 1d d9 bd c3 b7 48 be 37 5a 13 3d
       -0.14641675 -0.106013976 -0.1960135 0.035974707
000190 9b 4c 89 bd a1 e0 4d 3d 47 56 2a bc ae bd 5f bd
       -0.067040645 0.05026305 -0.010396547 -0.054624252
0001a0 86 c2 5c 3e 6a 9d 23 3e bf 37 27 3e 54 ca 58 3e
       0.2155858 0.15978017 0.16329859 0.21170932
0001b0 8a 83 16 be 81 d4 f6 bd 65 c3 06 be ca b4 53 3e
       -0.14698616 -0.12052251 -0.13160475 0.20674434
0001c0 ee 70 05 3e 6a 21 06 3e f9 89 c2 bd f4 af 8b bd
       0.1303136 0.13098684 -0.094989724 -0.0682067
0001d0 39 7a 3b 3e af 2e c3 bd de 80 21 be 18 37 f5 3d
       0.18308343 -0.095303886 -0.15771815 0.11973399
0001e0 3d 43 eb bd 89 77 14 bd db 0d e1 3d 8c e3 4f 3e
       -0.11487434 -0.03624681 0.10988971 0.20301646
0001f0 b2 2b 2b bd a1 f1 1d be d7 79 13 3e 42 30 82 3e
       -0.041789718 -0.15424205 0.14401947 0.25427443

fc2.weight f4 [1, 128]
000000 df 13 d5 bc c6 14 bf bd 82 ba 0f bd 3a 00 0e be
       -0.026010452 -0.09330134 -0.035089977 -0.13867274
000010 35 cd 0c 3e 3b df 09 3e 93 23 94 3d c6 8f cf bd
       0.13750155 0.13464062 0.07233348 -0.101348445
000020 f4 7d c7 bd fb 0e aa 3d 39 31 93 3c c1 9c 1b bd
       -0.097408205 0.083036385 0.017967807 -0.03799129
000030 23 36 82 bd bb 0c 38 3e 7d a9 e5 bc c6 f9 22 be
       -0.06357982 0.17973606 -0.02803492 -0.15915594
000040 e8 73 a4 3d 58 de 0e be a8 0f da 3d ad fc 00 be
       0.0802992 -0.13952005 0.106475174 -0.12596388
000050 2a 4f a2 bd c0 f2 e5 bd 8f 85 0c 3e f2 6e e2 3d
       -0.079252556 -0.112279415 0.13722824 0.110563174
000060 5a ef ae 3d 07 06 93 bd 3a 20 f5 bd d7 14 05 be
       0.085417464 -0.07178884 -0.11969037 -0.12996231
000070 72 f1 02 be f3 77 c3 3d 04 f2 d0 bc 71 14 e0 3d
       -0.12787417 0.09544363 -0.025506027 0.10941399
000080 1e 01 7b 3d 0d 91 8c 3d a9 bf f8 bd e5 63 16 3e
       0.061280362 0.06863604 -0.12145931 0.14686544
000090 43 7c a0 bd 75 d8 ba 3d 18 dc 5c 3a 8f 14 96 bd
       -0.07836201 0.09123317 0.00084251305 -0.0732814
0000a0 d1 5f 2d 3e 48 47 1f bd 8d 33 a6 3d 72 20 54 bc
       0.16931082 -0.03888634 0.08115301 -0.012947189
0000b0 39 cd 07 be 38 23 51 3d a6 17 25 3e e1 d4 e5 bd
       -0.1326188 0.051058978 0.16122302 -0.11222244
0000c0 68 b4 9b 3d 94 a2 c6 bd db 97 f8 3d db 19 de bd
       0.07602769 -0.09698978 0.12138339 -0.10844775
0000d0 82 16 55 3e 7c 85 11 3e b5 1c 25 3e ef 4e ce 3d
       0.20809367 0.14211076 0.16124232 0.10073649
0000e0 a6 22 7c 3d 00 75 bd 3d 86 91 b6 bd 5e d5 bd bd
       0.06155648 0.092508316 -0.08914475 -0.09269212
0000f0 81 43 ef bd 12 08 f7 3c e1 4c 6c bb e4 39 bd 3d
       -0.11682797 0.030155215 -0.0036056566 0.092395574
000100 47 83 24 3e 95 dd d8 3d 64 5d 31 3d d1 a4 43 3d
       0.16065703 0.105891384 0.043301955 0.047764603
000110 f3 a4 7d 3d 20 73 35 bd 1f 1d 37 3e a0 c6 67 bd
       0.061924886 -0.044299245 0.17882203 -0.056585908
000120 a4 a2 93 3d 6d 01 24 be 85 14 85 3d 54 fd b7 bc
       0.072087556 -0.16016169 0.064980544 -0.022459663
000130 91 f4 d1 3d b1 48 d7 bd 97 e5 b2 bd d6 a5 86 bd
       0.102517255 -0.10511912 -0.08735197 -0.065745994
000140 9c ce 09 be 68 ec ff 3c 5d 42 40 bd a1 c3 04 bd
       -0.13457721 0.031240657 -0.04693829 -0.03241313
000150 85 d0 d3 3d 85 8f 9e 3d 66 fa d1 bd ca 47 d4 bd
       0.10342506 0.07742218 -0.10252838 -0.10365255
000160 8f 97 ea 3d 7a b4 f1 bd 5b 77 ba 3d e9 06 70 bd
       0.11454689 -0.11802001 0.091047965 -0.05860034
000170 2e 6d e4 3d 3c bd 7d bd c5 68 1e bd 87 39 7d bd
       0.11153637 -0.061948046 -0.038674135 -0.06182244
000180 54 69 6c bd ee 73 f7 bd 27 4a 03 bc 98 fd bb 3d
       -0.057717636 -0.12082659 -0.008013285 0.091792285
000190 b1 9e 95 bd 03 a2 8b bd 93 f7 0f 3e 9d 84 15 3e
       -0.073056586 -0.06818011 0.14059286 0.14601369
0001a0 84 c2 e1 3d b8 4a 1b be 4e 05 d1 3d 42 cc 01 3e
       0.11023429 -0.15165222 0.1020609 0.12675574
0001b0 ce 05 b6 bd dd cd 7b bd be ef 82 3d c8 be 25 3e
       -0.08887826 -0.061475623 0.063933834 0.16186059
0001c0 a5 3b 08 be 0e 49 8b bc 64 7f 1a bd bc 06 16 be
       -0.13304003 -0.017002609 -0.037719145 -0.14651006
0001d0 62 65 28 bd c6 2b 2b 3e b0 a3 6f 3d 68 d2 1a be
       -0.04111231 0.16715917 0.058505714 -0.15119326
0001e0 8a 32 1d 3d d3 3a ff bd 91 f0 9a 3d b4 cc f3 bd
       0.038378276 -0.12462392 0.07565416 -0.119042784
0001f0 d9 c3 99 bd 31 9d bb bd 92 e2 54 bd a5 af b8 3d
       -0.07508058 -0.09160841 -0.051973887 0.090178765
